…
fixing audio lenght : Aunlabelledtest__201108011117.wav
Loading file
fixing audio lenght : Aunlabelledtest__201108222244.wav
Loading file
fixing audio lenght : Aunlabelledtest__201106191034.wav
Loading file
fixing audio lenght : Aunlabelledtest__201105011546.wav
Loading file
fixing audio lenght : Aunlabelledtest__201103011036.wav
Loading of unlabel data done
Model: "sequential"
_________________________________________________________________
 Layer (type)                Output Shape              Param #
=================================================================
 conv1d (Conv1D)             (None, 46, 1024)          11264

 max_pooling1d (MaxPooling1D  (None, 23, 1024)         0
 )

 batch_normalization (BatchN  (None, 23, 1024)         4096
 ormalization)

 conv1d_1 (Conv1D)           (None, 23, 1024)          1049600

 max_pooling1d_1 (MaxPooling  (None, 11, 1024)         0
 1D)

 batch_normalization_1 (Batc  (None, 11, 1024)         4096
2023-06-08 11:57:34.002760: I tensorflow/core/common_runtime/executor.cc:1197] [/device:CPU:0] (DEBUG INFO) Executor start aborting (this does not indicate an error and you can ignore this message): INVALID_ARGUMENT: You must feed a value for placeholder tensor 'gradients/split_2_grad/concat/split_2/split_dim' with dtype int32
         [[{{node gradients/split_2_grad/concat/split_2/split_dim}}]]
…
2023-06-08 11:57:42.655148: I tensorflow/core/common_runtime/executor.cc:1197] [/device:CPU:0] (DEBUG INFO) Executor start aborting (this does not indicate an error and you can ignore this message): INVALID_ARGUMENT: You must feed a value for placeholder tensor 'gradients/split_grad/concat/split/split_dim' with dtype int32
         [[{{node gradients/split_grad/concat/split/split_dim}}]]
2023-06-08 11:57:42.656147: I tensorflow/core/common_runtime/executor.cc:1197] [/device:CPU:0] (DEBUG INFO) Executor start aborting (this does not indicate an error and you can ignore this message): INVALID_ARGUMENT: You must feed a value for placeholder tensor 'gradients/split_1_grad/concat/split_1/split_dim' with dtype int32
         [[{{node gradients/split_1_grad/concat/split_1/split_dim}}]]
 hNormalization)

 conv1d_2 (Conv1D)           (None, 11, 512)           524800

 max_pooling1d_2 (MaxPooling  (None, 5, 512)           0
 1D)

 batch_normalization_2 (Batc  (None, 5, 512)           2048
 hNormalization)

 lstm (LSTM)                 (None, 5, 256)            787456

 lstm_1 (LSTM)               (None, 128)               197120

 dense (Dense)               (None, 64)                8256

 dropout (Dropout)           (None, 64)                0

 dense_1 (Dense)             (None, 32)                2080

 dropout_1 (Dropout)         (None, 32)                0

 dense_2 (Dense)             (None, 5)                 165

=================================================================
Total params: 2,590,981
Trainable params: 2,585,861
Non-trainable params: 5,120
_________________________________________________________________
Epoch 1/5
158/158 [==============================] - 10s 34ms/step - loss: 2.4947 - accuracy: 0.3738 - val_loss: 1.5330 - val_accuracy: 0.3944
Epoch 2/5
158/158 [==============================] - 4s 24ms/step - loss: 2.1582 - accuracy: 0.4571 - val_loss: 1.2880 - val_accuracy: 0.5704
…
